ROUGE-Based-Model/models/rouge_based_models/ROUGE_Based_Model_wording_64_10_0.01.pt (torch, 6264 bytes, 3 tensors)

steps.0.weight f4 [64, 13]
-0.6928186 0.0042556855 -0.15836762 -0.10289259 -0.40949246 -0.1113309 -0.2725071 -0.3495395
0.15992227 -0.1603216 -0.18101025 0.3665901 0.048089985 -0.3427374 -0.5197222 -0.26399812
1.3765908 0.062310234 0.059740186 0.34755376 -0.16495411 -0.08179177 -0.5423586 -0.15240045
-0.30819985 0.31071898 0.101760924 0.049201515 -0.017309466 0.7786884 0.07332421 0.35041475
0.13455242 0.24439918 -0.08022384 -0.463457 0.18354887 0.40604475 -0.0938965 -0.0016888658
-0.13747409 -0.11812451 -0.09980764 0.21904886 0.10481355 -0.33569518 0.117762096 -0.16399184
0.12972859 0.15643886 -0.05634823 -0.009776252 0.13970092 0.055563644 -0.0053394134 -0.03027706
-0.26949087 -0.4642692 0.063120104 0.1462324 -0.69511664 -0.76840043 0.3988801 -0.32649386
0.09014257 0.45615596 -0.23290102 0.30620816 -0.7148296 -0.48355865 -0.3841832 0.015816752
-0.08351021 -0.42533705 0.57778835 -0.32146212 -0.1172798 0.21198419 -0.18347618 -0.13156568
0.007651908 -0.57010776 -0.70700675 -0.3854897 -0.4354218 -0.6379926 -0.006264525 -0.02576456
-0.54970396 0.03491175 0.0928008 0.32577175 0.18228167 -0.23628043 0.2691537 0.5682482
0.5738668 0.63199914 0.59230506 0.04869276 0.23595405 0.49455997 0.13597663 -0.14440201
0.27691737 -0.1041534 -0.28546926 -0.12325437 0.072708465 -0.20898013 -0.4440293 -0.55486757
-0.28811792 -0.16120744 -0.6193547 -0.4051668 -0.8016775 -0.0060081854 -0.183343 -0.3961901
-0.37493864 -0.38362023 -0.18521553 -0.0764898 -0.3169957 0.14922096 -0.06921511 -0.048773237
-0.16497175 0.071051806 -0.70908976 -0.3425885 -0.42066404 -0.7984969 -0.82248384 -0.8865463
0.018014008 -0.59477353 -0.8698283 -0.43289813 -0.67139345 -0.51826376 -0.24325947 -0.11502692
0.25506172 0.1356721 0.66736853 0.59399444 0.67210066 0.046137407 0.109629795 0.3605343
-0.03648266 0.22088827 -0.43562222 0.16318826 -0.16631107 0.082049325 -0.2532282 0.6048118
0.22963114 0.20298575 0.09185201 -0.079630874 0.018540476 -0.41895297 -0.0051583988 0.08245352
-0.252335 -0.2897467 0.0040166476 -0.034460254 0.19532664 0.16974731 -0.12212729 -0.41553146
-0.009731798 0.34171548 -0.35426837 0.00354956 -0.31252193 0.15498821 -0.15344633 -0.4912686
0.07971449 -0.48973897 -0.52697587 -0.5031862 -0.4694668 -0.81851053 -0.38518453 -0.15442544
-0.3214395 -0.24482577 -0.22312297 -0.19050106 -0.37853646 -0.36980444 -0.49784216 -0.55099124
-0.79148984 -0.38854352 -0.29816967 0.28851599 -0.11626345 0.21736756 0.23040183 0.05487833
0.27288517 -0.28191194 -0.094337754 -0.14675653 -0.8465381 -0.09646766 0.0026364021 -0.23494633
-0.25044292 -0.32344344 0.031115197 -0.3267221 -0.5163681 -0.1871924 -0.43258837 0.15131052
-0.0072698756 -0.2525554 -0.24542417 -0.07674492 0.2732207 -0.24588864 0.1627411 -0.11865728
-0.07051892 0.035688996 -0.122581124 -0.26190785 -0.016991168 0.19369923 -0.39885637 -0.2682388
-0.12727301 -0.062357403 -0.38063192 -0.3031554 -0.23862635 -0.36065704 0.09013279 0.11262192
0.04832906 -0.18407567 -0.38661006 -0.28053242 -0.18470801 0.0123158 0.4219836 0.09215119
00000000: 8f5c 31bf 4773 8b3b 1f2b 22be 5ab9 d2bd
00000010: ffa8 d1be 7401 e4bd 0d86 8bbe d7f6 b2be
00000020: aac2 233e 582b 24be c05a 39be b3b1 bb3e
00000030: 01fa 443d 477b afbe 840c 05bf c32a 87be
00000040: 2134 b03f 0439 7f3d 20b2 743d 91f2 b13e
00000050: bbe9 28be 7282 a7bd 03d8 0abf dd0e 1cbe
00000060: 5fcc 9dbe 8f16 9f3e 0868 d03d 8787 493d
00000070: 95cc 8dbc 1f58 473f 012b 963d 9069 b33e
00000080: 1cc8 093e c743 7a3e 664c a4bd 3c4a edbe
00000090: 3cf4 3b3e 19e5 cf3e cf4c c0bd ef5c ddba
000000a0: 02c6 0cbe 43eb f1bd f367 ccbd 584e 603e
000000b0: 7da8 d63d 3de0 abbe 412d f13d 7aed 27be
000000c0: 92d7 043e 8231 203e 67cd 66bd 932c 20bc
000000d0: c20d 0f3e b496 633d 3ff6 aebb 9907 f8bc
000000e0: b5fa 89be b1b4 edbe 1d45 813d f2bd 153e
000000f0: 2af3 31bf e4b5 44bf 033a cc3e 342a a7be
00000100: ab9c b83d 468d e93e 9b7d 6ebe 51c7 9c3e
00000110: 13ff 36bf 0095 f7be a9b3 c4be 2292 813c
00000120: 6707 abbd c7c5 d9be f0e9 133f af96 a4be
00000130: 6430 f0bd 6212 593e 2ee1 3bbe 27b9 06be
00000140: dbbc fa3b 95f2 11bf 65fe 34bf e85e c5be
00000150: 9bef debe 7c53 23bf a546 cdbb 3310 d3bc
00000160: 66b9 0cbf a0ff 0e3d 590e be3d 8ecb a63e
00000170: 0ca8 3a3e 7ff3 71be 84ce 893e b778 113f
00000180: efe8 123f b2ca 213f 4ea1 173f 0f72 473d
00000190: f09d 713e f736 fd3e 753d 0b3e 1fde 13be
000001a0: 1dc8 8d3e 614e d5bd 0729 92be ca6c fcbd
000001b0: 2de8 943d e3fe 55be cf57 e3be cd0b 0ebf
000001c0: 3184 93be 9013 25be 088e 1ebf 0672 cfbe
000001d0: bd3a 4dbf 50e0 c4bb 44be 3bbe 6ed9 cabe
000001e0: f5f7 bfbe df69 c4be 24a9 3dbe afa6 9cbd
000001f0: 434d a2be 61cd 183e a7c0 8dbd 72c6 47bd
00000200: 5bee 28be 9c83 913d e886 35bf c367 afbe
00000210: 4761 d7be 4b6a 4cbf 4d8e 52bf b3f4 62bf
00000220: 1d92 933c 1443 18bf 11ad 5ebf d3a4 ddbe
00000230: 71e0 2bbf efac 04bf 0319 79be 3c93 ebbd
00000240: 7397 823e a1ed 0a3e aad8 2a3f 0510 183f
00000250: ca0e 2c3f 94fa 3c3d 9685 e03d f497 b83e
00000260: d76e 15bd 8930 623e e009 dfbe d31a 273e
00000270: 734d 2abe 7a09 a83d 20a7 81be f2d4 1a3f
00000280: 6d24 6b3e 7fdb 4f3e e81c bc3d 8315 a3bd
00000290: 32e2 973c 0181 d6be c907 a9bb 64dd a83d
000002a0: 0e32 81be ae59 94be 159e 833b 3226 0dbd
000002b0: b503 483e 3dd2 2d3e df1d fabd 8ac0 d4be
000002c0: 1f72 1fbc 55f5 ae3e aa62 b5be bc9f 683b
000002d0: e002 a0be 3bb5 1e3e 0921 1dbe 8f87 fbbe
000002e0: 5a41 a33d 11bf fabe e4e7 06bf d0d0 00bf
000002f0: f45d f0be e889 51bf e836 c5be b421 1ebe
00000300: b893 a4be 9bb3 7abe 597a 64be b612 43be
00000310: 88cf c1be 0257 bdbe 2be5 febe c30d 0dbf
00000320: 149f 4abf 2def c6be b2a9 98be 5eb8 933e
00000330: 881b eebd 9a95 5e3e 75ee 6b3e 1ac8 603d
00000340: 9bb7 8b3e c356 90be 2734 c1bd 5847 16be
00000350: b9b6 58bf d690 c5bd 7dc7 2c3b c595 70be
00000360: 0e3a 80be 619a a5be 4ce5 fe3c 1e48 a7be
00000370: b330 04bf 5daf 3fbe 397c ddbe 25f1 1a3e
00000380: 2338 eebb f14e 81be 7950 7bbe 712c 9dbd
00000390: 95e3 8b3e 3bca 7bbe 9aa5 263e 9702 f3bd
000003a0: 396c 90bd a02e 123d d00b fbbd c918 86be
000003b0: 1031 8bbc 1759 463e e736 ccbe 9956 89be
000003c0: db53 02be 7a6a 7fbd 30e2 c2be 2f37 9bbe
000003d0: 775a 74be 0aa8 b8be 8a97 b83d 52a6 e63d
000003e0: b1f4 453d 557e 3cbe c1f1 c5be f2a1 8fbe
000003f0: 1924 3dbe 36c8 493c 3c0e d83e c3b9 bc3d

steps.0.bias f4 [64]
-0.07780467 -0.011413653 0.09279979 -0.07171542 -0.39864972 -0.31654876 -0.057920963 -0.4870965
-0.13407359 -0.4071565 0.13954547 -0.50953615 -0.36704198 -0.28945792 0.042579733 0.34259012
0.50163627 -0.22273445 -0.23714082 -0.34354034 -0.24114753 0.5465402 -0.64704186 -0.35964176
-0.2956408 -0.3678704 -0.26271197 -0.0087882485 0.47967502 0.03358003 0.37994432 -0.23562367
-0.45052943 -0.39245185 0.5084369 -0.25369173 -0.39563727 0.052501623 0.28815204 -0.12558575
0.14315312 -0.26012036 -0.598304 0.040001776 -0.387126 -0.29542425 0.17496032 0.03276931
0.10890991 -0.49702075 0.24311069 -0.069494426 0.23260075 0.17961673 -0.2822119 0.2608626
0.044798434 0.031469595 0.25036514 -0.016624648 -0.3030742 0.33111727 0.6066207 0.21779117
00000000: 0e58 9fbd 5500 3bbc d10d be3d 89df 92bd
00000010: d11b ccbe ae12 a2be 883e 6dbd b664 f9be
00000020: 964a 09be d176 d0be 02e5 0e3e f670 02bf
00000030: edec bbbe d433 94be 1668 2e3d f967 af3e
00000040: 3c6b 003f 8014 64be 0bd5 72be 85e4 afbe
00000050: 61ef 76be 0fea 0b3f 89a4 25bf f722 b8be
00000060: 3b5e 97be 8259 bcbe 2f82 86be 96fc 0fbc
00000070: f797 f53e 378b 093d 1088 c23e 5547 71be
00000080: cbab e6be 73ef c8be ec28 023f e2e3 81be
00000090: f890 cabe f10b 573d aa88 933e 8d99 00be
000000a0: bb96 123e 7f2e 85be 732a 19bf e7d8 233d
000000b0: 6135 c6be d941 97be cc28 333e 1d39 063d
000000c0: 290c df3d 8179 febe 02f2 783e 1853 8ebd
000000d0: e42e 6e3e 73ed 373e 147e 90be c88f 853e
000000e0: 907e 373d 43e6 003d dc2f 803e 6a30 88bc
000000f0: 8b2c 9bbe 3488 a93e 7f4b 1b3f a604 5f3e

steps.2.weight f4 [1, 64]
0.016629174 -0.2406049 -0.07565634 0.021193897 0.06150434 0.076186284 0.00423167 -0.22392608
-0.68378896 -0.03465692 -0.2130753 -0.34944755 0.22151202 -0.09963098 -0.3372488 -0.2867663
-0.3253084 -0.43471906 -0.41471913 0.064074546 -0.1655885 -0.4094157 -0.53925204 0.58391064
-0.00017539415 -0.011795531 -0.23271868 0.008647356 0.14724492 -0.028179992 0.122638136 -0.2058297
-0.43519217 0.006506885 -0.85335934 0.0078021083 -0.14077333 0.27358505 0.29187244 0.30885667
-0.13136163 -0.11745986 0.2945908 -0.00078047364 -0.3069652 -0.00985127 0.04094021 0.087393716
0.10461622 -0.18189685 -0.28964514 0.059566647 -0.14051719 -0.4249695 0.22532901 0.18599196
0.17062178 0.00381823 0.20054375 -0.1451872 -0.97626203 -0.5455692 0.54570895 0.3553823
00000000: e839 883c 2261 76be b6f1 9abd d39e ad3c
00000010: faeb 7b3d 8e07 9c3d d2a9 8a3b e14c 65be
00000020: cb0c 2fbf 6af4 0dbd 6930 5abe caea b2be
00000030: 0cd4 623e 540b ccbd e0ab acbe 08d3 92be
00000040: d38e a6be 7f93 debe 1156 d4be 8439 833d
00000050: 0890 29be ef9e d1be 6c0c 0abf 2b7b 153f
00000060: 02ea 37b9 0b42 41bc ce4d 6ebe a4ad 0d3c
00000070: 5fc7 163e bad9 e6bc b429 fb3d 05c5 52be
00000080: 82d1 debe b537 d53b c275 5abf d4a8 ff3b
00000090: e226 10be 5713 8c3e 4e70 953e 7622 9e3e
000000a0: aa83 06be cc8e f0bd 9bd4 963e b398 4cba
000000b0: 8b2a 9dbe 3967 21bc ecb0 273d 7afb b23d
000000c0: 0741 d63d 2b43 3abe 5e4c 94be 28fc 733d
000000d0: bde3 0fbe 9a95 d9be a6bc 663e ad74 3e3e
000000e0: 7ab7 2e3e 453b 7a3b 575b 4d3e f4ab 14be
000000f0: 4fec 79bf 6caa 0bbf 95b3 0b3f abf4 b53e
