ROUGE-Based-Model/models/rouge_based_models/ROUGE_Based_Model_both_64_10_0.01.pt (torch, 6496 bytes, 4 tensors)

steps.0.weight f4 [64, 13]
0.07038375 0.23166183 -0.20030048 0.86863226 0.29896912 0.38632658 0.03211151 0.13578565
0.30672288 -0.15731838 -0.27648744 0.021047061 0.005083788 0.20494941 -0.060631603 0.26955295
0.5359785 0.052088484 0.15751602 -0.4984106 -0.31756797 -0.34821555 -0.08875339 -0.25775936
0.03543275 -0.24142377 -0.5714519 -0.45129862 0.067846365 0.79148906 0.49123436 0.47075284
0.42815745 0.5175889 0.034440525 -0.090520546 0.2719192 -0.13972124 0.30300215 -0.14858486
0.11639152 -0.14251548 0.19331864 0.0067842593 0.1760062 0.010311862 0.27949068 0.13283
-0.050279077 -0.12087068 -0.26821318 -0.36471385 -0.09301475 0.008166366 0.30032736 -0.17496401
0.38104606 -0.5335995 -0.26533803 0.045169417 -0.010601633 0.030135222 -0.25301996 -0.353156
0.054325707 -0.4546124 -0.2817049 -0.19803369 0.1101156 0.9143291 0.15978208 0.26272497
0.3026402 0.24598661 0.22777754 0.23456837 0.35477403 -0.16934004 0.2771627 0.3338874
0.13748583 -0.18677655 -0.6806494 -0.61183476 -0.1409221 -0.10823049 -0.18946655 -0.091338985
0.14992002 -0.20200317 0.17967871 0.11305761 -0.3396632 -0.5009117 -0.23413453 -0.118200585
-0.41857153 -0.34421316 -0.3217288 -0.36558363 0.29693183 0.24434868 -0.10146401 -0.11349186
-0.05563375 0.12804109 0.10219452 -0.7423776 -0.87863004 -1.0517098 -0.5526555 -0.41701978
0.054252952 0.15493007 0.23710263 0.041024603 -0.042263493 -0.001574047 -0.22111666 -0.54607296
-0.57328796 -0.3712276 -0.39954674 -0.16182065 -0.16091628 0.17696059 0.12975663 0.090780444
-0.2420566 0.059250254 -0.32198632 -0.1905952 0.2712528 -0.44835472 0.1463663 0.10509001
0.37457195 -0.46658653 -0.08861521 0.013272904 -0.0698841 -0.04027292 -0.14424469 -0.14894369
0.26091245 0.11689948 -0.08635727 -0.4414823 -0.32136625 0.3831162 -0.08490654 0.046823002
0.036675032 -0.1269791 0.07374224 0.20475332 0.09971027 0.114908285 -0.034999713 -0.043793224
0.120280184 0.33194944 -0.06230645 -0.12650178 -0.1625682 -0.24429408 0.5055197 -0.25436842
-0.020723373 -0.29827887 -0.15914232 0.4786173 -0.41403672 -0.37031436 -0.5690414 -0.043477736
-0.036978293 -0.1901173 0.3690071 0.10516514 0.017393738 0.18423179 -0.12397795 -0.077274926
-0.019290546 -0.26859257 0.2043616 -0.3005999 -0.020180622 0.57196945 0.25733972 -0.32802683
0.18763189 -0.050431345 0.02336057 0.40808624 0.4863945 0.14017841 -0.42220572 0.040011115
-0.3720491 -0.38143706 -0.1287274 0.4678683 -0.33442014 0.3569721 0.24467278 0.13975607
0.21635471 0.15022947 0.21784584 -0.4198244 -0.60037035 -0.39119738 0.104219325 -0.10089178
0.25635958 -0.065044634 0.22144191 0.28827313 0.40705633 0.07630764 0.18354167 0.49400377
-0.012092703 -0.06921814 -0.06229071 -0.0015989646 -0.027899029 -0.11642188 -0.26354152 0.026944146
0.27111408 -0.09283033 0.5098873 0.477782 -0.19142613 -0.11916954 -0.258901 -0.12815168
-0.06390742 -0.2440898 0.106887266 0.4352584 0.17744027 0.11831599 0.33718294 -0.46875653
-0.07867712 -0.4769334 0.66546494 0.4196833 1.0399512 0.35558665 -0.0515971 0.014088711
00000000: 5b25 903d c238 6d3e 921b 4dbe af5e 5e3f
00000010: 7b12 993e 99cc c53e 5c87 033d 650b 0b3e
00000020: c80a 9d3e 1218 21be c38f 8dbe e36a ac3c
00000030: e895 a63b 42de 513e d858 78bd d802 8a3e
00000040: e335 093f bc5a 553d e14b 213e ad2f ffbe
00000050: 4598 a2be 4f49 b2be 56c4 b5bd 09f9 83be
00000060: ee21 113d cb37 77be ac4a 12bf 9d10 e7be
00000070: 09f3 8a3d 079f 4a3f 1283 fb3e 8406 f13e
00000080: 7437 db3e b580 043f 8211 0d3d d662 b9bd
00000090: fe38 8b3e 1613 0fbe 1923 9b3e a126 18be
000000a0: ad5e ee3d 94ef 11be 52f5 453e 7e4e de3b
000000b0: f83a 343e 16f3 283c 6719 8f3e 9604 083e
000000c0: 6ff1 4dbd 0c8b f7bd 3d53 89be c6bb babe
000000d0: 847e bebd 39cc 053c 82c4 993e c429 33be
000000e0: 7818 c33e fa99 08bf 63da 87be 9103 393d
000000f0: 79b2 2dbc 24de f63c d58b 81be ddd0 b4be
00000100: a284 5e3d f5c2 e8be a03b 90be 58c9 4abe
00000110: 4a84 e13d 7911 6a3f ea9d 233e e383 863e
00000120: a8f3 9a3e eae3 7b3e 843e 693e b132 703e
00000130: f1a4 b53e 7a67 2dbe 45e8 8d3e 4af3 aa3e
00000140: 16c9 0c3e 5a42 3fbe 0a3f 2ebf 34a1 1cbf
00000150: e24d 10be f2a7 ddbd 8503 42be ef0f bbbd
00000160: a284 193e ebd9 4ebe b2fd 373e c08a e73d
00000170: 56e8 adbe c03b 00bf f6c0 6fbe 2613 f2bd
00000180: 024f d6be b53c b0be a3b9 a4be c72d bbbe
00000190: 7307 983e 8a36 7a3e 5dcc cfbd 6c6e e8bd
000001a0: 37e0 63bd 341d 033e 5c4b d13d 750c 3ebf
000001b0: e6ed 60bf 6d9e 86bf d57a 0dbf 9e83 d5be
000001c0: 5838 5e3d fda5 1e3e 08cb 723e 6a09 283d
000001d0: 7c1c 2dbd 4150 ceba 686c 62be 70cb 0bbf
000001e0: 00c3 12bf 8b11 bebe 6491 ccbe 50b4 25be
000001f0: 3dc7 24be 2835 353e ecde 043e 19eb b93d
00000200: afdd 77be 65b0 723d 64db a4be 632b 43be
00000210: a6e1 8a3e c08e e5be 0ce1 153e 6e39 d73d
00000220: e5c7 bf3e 6ee4 eebe e47b b5bd 9876 593c
00000230: 651f 8fbd 38f5 24bd e1b4 13be b284 18be
00000240: 5196 853e ff68 ef3d 15dc b0bd f809 e2be
00000250: 1e8a a4be ce27 c43e 7be3 adbd 7ac9 3f3d
00000260: 8f38 163d cf06 02be 2c06 973d dbaa 513e
00000270: e634 cc3d 0955 eb3d dc5b 0fbd 8660 33bd
00000280: 7555 f63d 47f5 a93e 0c35 7fbd af89 01be
00000290: 4778 26be 3a28 7abe bd69 013f 943c 82be
000002a0: 10c4 a9bc 02b8 98be 34f6 22be 540d f53e
000002b0: 9ffc d3be d899 bdbe b2ac 11bf b615 32bd
000002c0: 8d76 17bd 1cae 42be 80ee bc3e d260 d73d
000002d0: 507d 8e3c 42a7 3c3e 27e8 fdbd 5142 9ebd
000002e0: 3507 9ebc f784 89be 2b44 513e 3be8 99be
000002f0: d551 a5bc 976c 123f 08c2 833e 22f3 a7be
00000300: 9322 403e 1991 4ebd ab5e bf3c aef0 d03e
00000310: b308 f93e ee8a 0f3e 592b d8be b2e2 233d
00000320: 387d bebe b84b c3be 1ed1 03be 6f8c ef3e
00000330: 1e39 abbe 0cc5 b63e 808b 7a3e 371c 0f3e
00000340: 178c 5d3e c1d5 193e fb12 5f3e 39f3 d6be
00000350: dfb1 19bf 064b c8be f170 d53d 59a0 cebd
00000360: 9041 833e 1f36 85bd abc1 623e 8998 933e
00000370: b069 d03e 2e47 9c3d 59f2 3b3e 10ee fc3e
00000380: 7920 46bc 3dc2 8dbd 8b24 7fbd 5994 d1ba
00000390: 818c e4bc 986e eebd eaee 86be f8b9 dc3c
000003a0: 77cf 8a3e d41d bebd f987 023f d89f f43e
000003b0: 3605 44be 290f f4bd ac8e 84be 323a 03be
000003c0: e5e1 82bd adf2 79be b6e7 da3d 30da de3e
000003d0: e7b2 353e a74f f23d 3ea3 ac3e db00 f0be
000003e0: 7821 a1bd 9d30 f4be e95b 2a3f bbe0 d63e
000003f0: 1f1d 853f 740f b63e 7b57 53bd 56d4 663c

steps.0.bias f4 [64]
-0.30243132 0.092705905 -0.40050536 0.46195874 -0.23152843 -0.16515788 -0.05431588 -0.19560742
0.3696728 0.47843507 -0.14134555 0.4472729 -0.17843676 0.3676662 -0.52627367 0.4467078
0.28050202 -0.07093564 -0.34525874 0.0433788 -0.33314776 0.657913 -0.11480063 0.17460008
-0.47690845 0.17888625 -0.17669882 -0.24543771 -0.1307849 -0.0932095 -0.105611734 0.6159217
-0.1911986 -0.36187267 -0.0324691 0.25770247 0.22086173 -0.2939262 -0.10627974 -0.051344786
-0.25948325 -0.20752183 -0.3772357 -0.11626967 -0.13391753 0.018817049 -0.3119417 0.280118
0.08088326 -0.24620412 -0.06904618 0.22599721 0.106353074 0.56086457 -0.26801825 -0.41462234
0.15195177 -0.08587899 0.573662 -0.16248614 -0.5314707 -0.27036932 -0.2658699 0.43739602
00000000: 47d8 9abe 98dc bd3d 0a0f cdbe db85 ec3e
00000010: ca15 6dbe 261f 29be 547a 5ebd 504d 48be
00000020: c145 bd3e 71f5 f43e e3bc 10be f400 e53e
00000030: 20b8 36be bf3e bc3e dfb9 06bf e2b6 e43e
00000040: f69d 8f3e b446 91bd c1c5 b0be f8ad 313d
00000050: 5892 aabe fd6c 283f 981c ebbd 5dca 323e
00000060: 582d f4be f52d 373e 89f0 34be 0654 7bbe
00000070: 7aec 05be 9fe4 bebd f74a d8bd 0bad 1d3f
00000080: 91c9 43be 6047 b9be 52fe 04bd 94f1 833e
00000090: 9429 623e 7f7d 96be 31a9 d9bd e94e 52bd
000000a0: fdda 84be 9a80 54be 0a25 c1be cb1e eebd
000000b0: ad21 09be 3626 9a3c d3b6 9fbe a06b 8f3e
000000c0: 1fa6 a53d ef1c 7cbe 1568 8dbd d06b 673e
000000d0: a4cf d93d d294 0f3f b039 89be 6149 d4be
000000e0: 3f99 1b3e 53e1 afbd 83db 123f c462 26be
000000f0: 770e 08bf d96d 8abe 1920 88be 5ff2 df3e

steps.2.weight f4 [2, 64]
-0.20286542 -0.03218003 -0.45813036 -0.2926753 0.0973524 -0.18559639 0.1346277 0.009553472
-0.79668456 -0.08173179 0.05210092 0.062192194 0.24507862 0.10620048 0.0072432407 0.098659724
0.29015452 0.06830987 0.6172505 -0.20348929 -0.5624388 0.279573 0.16613393 0.06769558
-0.44991967 -0.022214646 -0.4040505 -0.32126153 0.017724669 0.030582275 0.3314303 -1.034035
-0.057726793 -0.20707238 0.01605873 -0.21122682 0.3729416 -0.40764633 0.3194931 -0.6518022
-0.08260899 0.06377379 -0.05321232 -0.24785188 0.0829225 0.51984435 0.097530656 -0.38985026
0.43977103 -0.1774635 -0.17913929 -0.15893304 0.110338986 -0.36450776 0.06435344 0.054428317
0.062204644 0.18672062 -0.46403965 -0.026271584 -1.2079799 -0.7715765 -0.35381874 -0.25817463
-0.4395073 -0.0761658 -0.6839816 0.08540622 0.023073433 0.06577092 -0.011145813 0.31730354
-0.56692934 0.110391565 -0.056924466 0.45832384 -0.42602506 0.29027706 -0.09613543 0.3473435
0.13848512 0.021512164 0.017633075 -0.26387197 0.14107656 0.30917105 -0.03200867 -0.7210975
-0.38354623 -0.03533756 -0.09694527 -0.28367403 -0.045057267 -0.28364325 0.17079267 -0.78399795
0.428403 -0.34445882 -0.012360267 0.76497126 0.20864616 0.45695725 0.30881327 -0.61701524
0.10049274 -0.04971502 0.7639062 -0.36713094 -0.30604616 -0.20794581 -0.18279615 -0.41204032
-0.10505846 -0.27585584 -0.06726402 0.013710294 -0.100647315 -0.33858234 -0.29953173 -0.32737008
0.23399085 0.18307774 0.1836964 0.22592947 -0.5126857 -0.55335 -0.4967263 0.16672246
00000000: f4bb 4fbe 35cf 03bd 1090 eabe 89d9 95be
00000010: b260 c73d fb0c 3ebe d8db 093e 2a86 1c3c
00000020: 85f3 4bbf ff62 a7bd c667 553d 3ebd 7e3d
00000030: e4f5 7a3e a37f d93d b558 ed3b 1c0e ca3d
00000040: 228f 943e 0ce6 8b3d 2104 1e3f 7f5f 50be
00000050: fdfb 0fbf 3124 8f3e 031f 2a3e fba3 8a3d
00000060: df5b e6be 7dfb b5bc b5df cebe 647c a4be
00000070: 5333 913c ae87 fa3c 3bb1 a93e 425b 84bf
00000080: ee72 6cbd c80a 54be 998d 833c d84b 58be
00000090: 34f2 be3e 05b7 d0be 9994 a33e 82dc 26bf
000000a0: e72e a9bd d59b 823d 29f5 59bd e2cc 7dbe
000000b0: 46d3 a93d 8514 053f 27be c73d 749a c7be
000000c0: ab29 e13e feb8 35be 4a70 37be 58bf 22be
000000d0: 68f9 e13d c3a0 babe bdcb 833d 3af0 5e3d
000000e0: 4cca 7e3d b133 3f3e 9b96 edbe 8137 d7bc
000000f0: 169f 9abf 0a86 45bf bb27 b5be 772f 84be
00000100: 1a07 e1be d1fc 9bbd 6b19 2fbf 75e9 ae3d
00000110: 7f04 bd3c e7b2 863d ee9c 36bc 9c75 a23e
00000120: 4822 11bf f914 e23d a129 69bd 6ca9 ea3e
00000130: f51f dabe 329f 943e a7e2 c4bd 02d7 b13e
00000140: 0bcf 0d3e 473a b03c 3d73 903c 3a1a 87be
00000150: 6076 103e ab4b 9e3e 861b 03bd d999 38bf
00000160: 2c60 c4be 1ebe 10bd 3e8b c6bd b93d 91be
00000170: f88d 38bd b039 91be 46e4 2e3e 17b4 48bf
00000180: a357 db3e e85c b0be b882 4abc 28d5 433f
00000190: 57a7 553e 4df6 e93e c61c 9e3e b6f4 1dbf
000001a0: 23cf cd3d faa1 4bbd 5b8f 433f 96f8 bbbe
000001b0: 15b2 9cbe bfef 54be ea2e 3bbe f3f6 d2be
000001c0: e428 d7bd fa3c 8dbe b8c1 89bd 24a1 603c
000001d0: 2e20 cebd aa5a adbe 395c 99be 0d9d a7be
000001e0: 4c9b 6f3e bb78 3b3e e91a 3c3e 0e5a 673e
000001f0: 5f3f 03bf 58a8 0dbf e952 febe 4bb9 2a3e

steps.2.bias f4 [2]
0.07119845 -0.084939785
00000000: 7ed0 913d e9f4 adbd
