Ensemble/models/rouge_based_models/ROUGE_Based_Model_both_64_10_0.01.pt (torch, 6496 bytes, 4 tensors)

steps.0.weight f4 [64, 13]
000000 98 02 2e 3e 28 c3 18 3d 9a b7 44 bd 7a 4b c7 3d
       0.16993177 0.03729549 -0.04802666 0.09731193
000010 a5 bb b8 bd 7c 6c b2 bc 27 bd c0 bd b4 5d a5 be
       -0.09020165 -0.021780245 -0.09411078 -0.32298052
000020 85 b8 d9 bb de 95 7e bd 9d 0a c4 be 64 4b cd be
       -0.006644311 -0.062154643 -0.38289347 -0.4009658
000030 14 60 4d be 06 99 9c bc 27 21 27 be 59 da e6 3e
       -0.20056182 -0.019115936 -0.1632124 0.4508846
000040 d4 c0 18 3e c7 d7 8f be 89 26 b2 be ba c1 72 bd
       0.14917308 -0.28094313 -0.34795025 -0.059266783
000050 2a 28 25 3d d9 e7 9b be 4e 7f ab be 75 07 b2 bd
       0.040321507 -0.30450323 -0.33495563 -0.086928286
000060 32 19 2e bd 98 4b f6 bd bd fc eb bd 2d 74 71 bd
       -0.042504497 -0.12026137 -0.115228154 -0.058948684
000070 93 7b 2c bf 17 17 5f 3d e3 0c 62 3e 2e 7a 50 3f
       -0.6737606 0.05446538 0.22075228 0.8143643
000080 cc e0 48 3f ec 8e 80 3e aa 4d 62 3d 55 57 23 bd
       0.7846801 0.2510904 0.055249847 -0.03987821
000090 53 2e a5 bd e1 6d a3 be d6 30 02 3d 14 88 5c 3d
       -0.08065476 -0.31919768 0.031784855 0.05384071
0000a0 0b 0f 15 3f a4 23 9c 3d 2d 84 ad bd 6a 35 c0 be
       0.5822608 0.076239854 -0.08472476 -0.37540752
0000b0 b7 22 ca be 3a 64 1d bf 08 3f aa bc d3 f6 02 3d
       -0.3947961 -0.6148106 -0.020782009 0.03197367
0000c0 23 b2 a8 be e5 20 4e bd a8 e8 03 3d 05 db e2 bc
       -0.32948408 -0.05032434 0.0322043 -0.027692327
0000d0 67 f9 df be 3b 53 9d 3e 26 91 a2 be a0 a1 e5 3d
       -0.43744966 0.30727562 -0.31751364 0.11212468
0000e0 97 88 66 3e 82 02 13 3e 6e ce 52 3e 64 a4 63 be
       0.22513042 0.14356425 0.20586559 -0.22230679
0000f0 aa f4 9e 3d f7 40 bb bb ac 1e 8b 3e e6 cb 1d bc
       0.0776151 -0.0057145315 0.27171838 -0.009631133
000100 0c fa 58 bc 2c d6 8c be 8e f1 85 3e 7c 5f 1d 3e
       -0.01324321 -0.2750715 0.26160854 0.15368456
000110 ce fa 3f bf 33 c8 3e 3e ad e5 02 bf 2d 95 cc 3d
       -0.7499207 0.18631057 -0.5113171 0.099893905
000120 fd c1 65 3d db 01 0e bf a5 10 bb 3e fe 5b f3 3d
       0.056093205 -0.5547158 0.36536136 0.118827805
000130 95 17 6f be 3f 13 36 3e 78 cf 04 bf 4f 99 fa bb
       -0.2334884 0.1778078 -0.5187907 -0.0076476703
000140 db 66 96 be 50 ce d6 be 36 79 0d bd 49 65 e5 be
       -0.29375347 -0.4195428 -0.034539424 -0.44803837
000150 63 93 93 be 96 52 3c 3e 9e 51 ed 3e 5e 40 36 be
       -0.28823385 0.18390879 0.4635133 -0.17797992
000160 cc 10 9d be 90 d6 99 3d da 29 75 3d 6b 74 cc be
       -0.30676877 0.07511628 0.059854366 -0.3993257
000170 ba 8a 48 3e 2d 33 77 3c eb c0 49 3e cc d3 d5 bd
       0.1958417 0.015087885 0.19702499 -0.10440788
000180 2f 6e 0e be 13 8f ce be a4 8e 7b be 31 6f 92 be
       -0.13909219 -0.40343532 -0.24566132 -0.28600457
000190 34 cd f3 be a4 e1 82 be a8 21 51 3e 96 cc 1b 3d
       -0.47617495 -0.25562775 0.20422995 0.038036905
0001a0 8f 9e 9a 3d 31 c4 b6 3e 04 12 de be ba a7 f9 be
       0.07549774 0.35696557 -0.4337312 -0.48760778
0001b0 89 69 64 3e 7e 65 d9 be 2d 61 84 3e ae 68 a5 3d
       0.22305883 -0.42460245 0.2585539 0.08076607
0001c0 87 1d 4c be 9e 46 d7 be 6b 7d 0b bf ca 91 01 3e
       -0.19933139 -0.42046064 -0.5448825 0.1265327
0001d0 77 80 2e be 19 0c b0 be 6c 8c 2e 3e f7 88 8c be
       -0.17041193 -0.3438423 0.17045754 -0.27448246
0001e0 2f 85 a3 3e 6e c7 8a be ff 2b e8 be 3a 32 2c be
       0.3193755 -0.27105278 -0.45346066 -0.16816035
0001f0 8e c1 f1 3c 32 08 89 be 4a dd 97 3d 33 b4 fa 3c
       0.02951124 -0.26764065 0.074152544 0.030603504
000200 61 23 97 be b0 5a 39 3d ea 0d 95 bc b2 06 99 be
       -0.2951918 0.045252502 -0.018195111 -0.2988792
000210 5b 9e 88 be f7 e0 75 be a3 6e b1 3e 3f 7c 8a be
       -0.26683316 -0.24011599 0.34654722 -0.27047917
000220 01 f5 1c 3e 65 ec 21 bf 5e ec 23 bf 39 2d fb 3d
       0.15327837 -0.63251334 -0.6403254 0.12264485
000230 1c 69 43 be 4c c9 ac be f2 df 62 bf 53 94 f5 be
       -0.19083065 -0.33747327 -0.88622963 -0.47964725
000240 c6 a0 06 bd 09 a7 a9 be 47 8f ac 3e 31 37 0d be
       -0.03286817 -0.3313525 0.33703062 -0.13790585
000250 b4 c3 14 be 44 c2 51 3e 1d 45 9b 3e 90 aa 14 3e
       -0.1452778 0.20484263 0.30326167 0.1451819
000260 fc 93 99 be 38 a7 9d be 8a 3e 23 bf 5f 9a b6 be
       -0.29995716 -0.3079164 -0.637673 -0.3566465
000270 51 73 97 3d 80 3b 8f be cd d4 71 be f9 15 dd be
       0.07395042 -0.27975082 -0.23616333 -0.43180826
000280 c7 f1 07 bf ca 28 eb be 77 a2 53 be 7f d4 8b be
       -0.531033 -0.45929557 -0.20667444 -0.2731056
000290 05 00 8a be 5f ed 9a be e5 57 09 3f 1f 44 25 bf
       -0.2695314 -0.30259225 0.5364974 -0.6455707
0002a0 c5 61 e8 3d 18 b7 e2 bd 04 27 b4 3c 66 37 2e 3f
       0.11346773 -0.110700786 0.02199126 0.6805328
0002b0 48 e5 4e be ab b0 cb be 4a ed 0d bf ff fd 02 bf
       -0.20204651 -0.39783224 -0.554402 -0.5116882
0002c0 c5 5f 34 bd b7 64 82 3d 9d da fc 3e 9f 1c 9d be
       -0.044036645 0.06366866 0.4938554 -0.306859
0002d0 b1 df e5 bd fe e1 d3 3d 9a e9 34 bf c5 14 9c be
       -0.112243064 0.10345839 -0.7066895 -0.30484596
0002e0 58 a4 96 be f6 21 91 be 58 ae b2 3e 97 32 96 3e
       -0.2942226 -0.28346223 0.3489864 0.29335472
0002f0 a9 3b da bb ef 16 53 3e 89 a9 22 be 1a f5 36 be
       -0.006659944 0.20614217 -0.15884985 -0.17866936
000300 a7 a5 25 bf 2e 84 b7 be c0 3a fb 3e c6 36 28 bc
       -0.6470589 -0.35843033 0.4906826 -0.010266965
000310 dc 26 40 be 64 96 bf bb 38 c5 78 be ca 01 9d 3c
       -0.18764824 -0.0058467854 -0.24293983 0.019165892
000320 81 64 3d 3b a5 2a 73 be 01 3d 97 3e fa 29 84 be
       0.0028899016 -0.23746736 0.2953873 -0.25813276
000330 0b fa 91 3d cc 9e 36 3e a1 5f d3 3e 38 86 90 3e
       0.0712777 0.17834014 0.41283897 0.282274
000340 61 96 0d 3d 97 2b 23 3d 35 7d 40 3e ba 4c 25 bd
       0.03456724 0.039836492 0.18797763 -0.040356375
000350 a7 d2 82 3e 18 33 9e 3d 8a b7 1b 3f d1 6f 21 3d
       0.2555134 0.07724589 0.60826933 0.039413277
000360 14 4e bc ba 5d 8c 8d bc f3 5f 40 bc cc dd 12 bf
       -0.0014366531 -0.017278844 -0.011741626 -0.57369685
000370 03 a1 e0 be 04 d0 73 3b bf f4 bc be f3 f5 c9 3d
       -0.43872842 0.0037202844 -0.36905476 0.09861364
000380 9d 78 0f be dd 96 e3 be 61 d1 76 bf dc 91 c3 be
       -0.14010854 -0.44451037 -0.96413237 -0.3819722
000390 be e6 a3 be 5f 8a aa be 46 6e f9 be ae 6b 81 3e
       -0.3201198 -0.33308694 -0.48716944 0.25277466
0003a0 cb b1 c1 be 80 d4 09 3f b5 ab 8f bd f9 e2 18 bd
       -0.37830958 0.53839874 -0.070151724 -0.037325833
0003b0 7e a8 5a bd 3f 4f f1 be 63 79 08 3d 6a db f8 3d
       -0.053383343 -0.47130772 0.03331889 0.12151225
0003c0 c4 53 7d bf 5d 02 11 be 1f 59 5c 3d c2 6a 05 bf
       -0.9895594 -0.14161058 0.05379593 -0.52116024
0003d0 11 5f c3 be ad 5c 64 be 0f 93 77 3e 26 e5 59 be
       -0.38158467 -0.22300978 0.24177192 -0.2127882
0003e0 44 a6 7f be 18 84 cd 3e b6 4a e3 3e 11 03 2c 3f
       -0.24965769 0.40139842 0.44392937 0.6719218
0003f0 5d c3 97 3e 68 cd b3 3e 0b e2 31 3f 7b 50 1a 3e
       0.29641238 0.3511765 0.6948554 0.15069763

steps.0.bias f4 [64]
000000 49 ef d2 be 61 50 7c be 64 62 d3 be 96 3a 20 3f
       -0.41198185 -0.24640037 -0.41286004 0.62589395
000010 98 b8 02 bf 2a c2 da 3e a0 31 83 3d 26 bf 5f be
       -0.5106292 0.4272626 0.064059496 -0.21850261
000020 03 06 f1 bd f1 18 5f bd 05 d1 d6 be 6d da 9d 3e
       -0.11768725 -0.054467145 -0.41956344 0.30830708
000030 e6 de 9d 3e 19 64 62 3e 4a e1 e7 be 3f fe 63 3e
       0.3083412 0.22108497 -0.4528907 0.22264956
000040 78 78 3e be ee 03 5d 3d f1 83 01 bc cb 42 39 bf
       -0.18600643 0.053958826 -0.007904992 -0.72367543
000050 8d db ea bd 57 dc 84 be 1e 5c 2b bf 59 d2 8c bd
       -0.11467657 -0.25949356 -0.66937435 -0.06876058
000060 cb 4c af be e2 21 72 3e c4 38 82 3d ca ab 38 be
       -0.34238276 0.23645738 0.063584834 -0.18034282
000070 43 04 0d 3a 68 64 80 be 2a 64 b7 bd 29 24 02 bf
       0.0005379358 -0.25076604 -0.08954652 -0.50836426
000080 4c 44 d4 bc e6 19 b4 3e d8 59 b1 be 0f b2 e9 bd
       -0.025911473 0.3517601 -0.34638858 -0.11410915
000090 7e 6b 6c bd 54 90 fa 3e 04 9b 77 3e aa 6f 74 be
       -0.0577197 0.4893824 0.24180228 -0.23870721
0000a0 32 e5 8e 3e 60 72 9d be 0b 48 99 3e 6d e2 40 3e
       0.27909237 -0.30751324 0.29937777 0.18836375
0000b0 9a 42 25 bf a4 3b a6 3e db ee 30 3f a2 39 8f bd
       -0.6455475 0.32467377 0.69114465 -0.069934145
0000c0 21 5f 95 be 68 a9 81 be 4b aa bc be 3c 7f 02 bf
       -0.2917414 -0.2532456 -0.36848673 -0.50975394
0000d0 0d 07 ad 3d 9f 09 13 bd 23 30 0d be 07 8b 0b be
       0.084486105 -0.035897847 -0.13787894 -0.13627253
0000e0 2a 73 95 3d 83 32 1c 3f b2 c4 8a be c2 de 08 bf
       0.072973564 0.61014575 -0.27103192 -0.534649
0000f0 e4 ad 7e bc 4d e4 7b be 84 da 2b bd 2e f7 10 be
       -0.015544388 -0.24598809 -0.04195644 -0.14156792

steps.2.weight f4 [2, 64]
000000 1c fa 13 3f 46 1c a7 be 55 c7 b8 be e9 6b e0 be
       0.5780351 -0.32638758 -0.36089578 -0.4383233
000010 04 4f 93 3d 50 53 c9 bd 35 20 46 be 6e 2c 50 bd
       0.071928054 -0.09830344 -0.19348224 -0.05082362
000020 e2 6d 90 be 77 39 4f 3e 27 14 5d bf ff 19 d9 be
       -0.28208834 0.20236765 -0.86358875 -0.42402646
000030 b5 d3 15 bf 00 34 2b bc 68 4f a7 be 02 e1 56 be
       -0.58526164 -0.0104494095 -0.3267777 -0.20984271
000040 7f a1 da bd 49 d2 43 3d 26 f0 23 bd f3 45 dc 3d
       -0.10675334 0.047807965 -0.040023945 0.10755529
000050 eb f6 68 be 40 a0 63 bc 36 2a c4 3e cc b3 e5 3e
       -0.22750442 -0.013893187 0.38313454 0.44863737
000060 77 d6 78 3e 1a cb d9 3e a2 9a 22 bd 25 ba 87 be
       0.24300562 0.42537767 -0.03969825 -0.26509205
000070 93 fe 86 be 10 25 9c 3d 06 09 66 3e ea 33 36 be
       -0.263661 0.076242566 0.2246438 -0.17793241
000080 43 6f 27 3e 8e 59 cf 3e c1 6c 2c bf 5e e3 6b 3e
       0.16351037 0.40498012 -0.67353445 0.23035952
000090 12 cf 6c bd 2f 6f 75 be 73 ef ef be 34 69 5d bc
       -0.057814665 -0.23968194 -0.46862373 -0.013513852
0000a0 cc 5a 98 be 1d e9 1f bd f0 00 83 bd 0b 25 80 3e
       -0.29756773 -0.039040674 -0.06396663 0.25028262
0000b0 1b b8 9f be 97 f6 ba 3e 97 34 5c bf 02 e9 43 3b
       -0.3119515 0.36516258 -0.86017746 0.0029893522
0000c0 d6 54 0f bf 5b 97 20 3d 9d 42 89 3e 6a 80 b6 be
       -0.55988824 0.039206844 0.26808634 -0.35644847
0000d0 49 4d 13 be 7a 99 78 3e 79 8f 39 be 4f 8e 6e 3e
       -0.1438495 0.24277297 -0.18121137 0.23296474
0000e0 b8 90 ec 3e b8 98 95 bf 35 68 f5 be 7c 74 c4 be
       0.46204162 -1.1687231 -0.47931066 -0.3837012
0000f0 1d 75 74 3d 51 59 32 3e ab cd 93 bd eb df 24 3e
       0.059682 0.17416884 -0.072169624 0.16101043
000100 ee 93 2a be 7c 46 8d 3d a6 d2 19 be c8 41 e3 3d
       -0.16657993 0.068982095 -0.15021762 0.11096531
000110 90 0c ea 3d 64 0e 88 3e 49 3e e2 be a4 fe 09 bd
       0.11428177 0.2657348 -0.44188145 -0.03369011
000120 f5 9a 88 3e 2b 36 2c bd e7 76 41 bf c9 f1 17 3e
       0.26680723 -0.042043846 -0.75572056 0.14838327
000130 5d 38 1e bd f6 f3 cc 3d 1a b9 97 be aa 6b d2 3e
       -0.03862797 0.10007469 -0.2963341 0.41097766
000140 82 f0 0a be 3f a4 ff 3e 24 83 84 be 98 6f 35 bf
       -0.13568309 0.49929997 -0.25881302 -0.70873404
000150 33 c1 12 be a8 b2 f2 be 58 2f cf be 67 2c ad 3e
       -0.14331512 -0.4740193 -0.40465808 0.3382294
000160 bd 53 96 bd 7e 50 84 3e b9 59 c1 3d 52 dd 80 3d
       -0.073401906 0.2584266 0.09440941 0.062922135
000170 98 d0 7a bf 96 a7 96 3e a1 33 87 be 91 82 bd be
       -0.9797454 0.29424733 -0.26406577 -0.37013677
000180 2b 26 5d bd ba 0f 04 3e 93 fc 63 be f3 29 71 3d
       -0.053991478 0.12896624 -0.22264318 0.058877897
000190 87 09 ca be 64 2a 05 3e 9f 69 d6 3d 26 5a 7c 3c
       -0.39460394 0.13004452 0.104693644 0.015402352
0001a0 54 3e ef 3c 01 99 ad 3c ee f3 0b be 55 71 d1 3d
       0.029204525 0.021191122 -0.1366727 0.102266945
0001b0 85 65 29 be d9 41 d9 bd 36 36 54 bf 93 ab 88 bc
       -0.16542633 -0.106082626 -0.8289522 -0.016683375
0001c0 fc 53 8c be 2e 2b 0d bd 79 f7 cf bd 27 1a b1 bd
       -0.27407825 -0.034465007 -0.101546235 -0.08647566
0001d0 a0 29 a4 3d 42 6e 9d 3e f0 05 78 be f2 4e be 3d
       0.08015752 0.30748183 -0.24221015 0.092924014
0001e0 5c c5 d0 be bc d1 10 bf 01 b2 02 bf 1a f3 99 be
       -0.40775573 -0.5657003 -0.5105286 -0.30068284
0001f0 37 1c 4d 3e 66 a0 1b be e5 a9 9c be b6 82 08 3e
       0.20030294 -0.15197906 -0.3059837 0.13331112

steps.2.bias f4 [2]
000000 56 85 3b 3e 86 bd 5f 3e
       0.18312582 0.21849641
