Ensemble/models/rouge_based_models/ROUGE_Based_Model_content_64_10_0.01.pt (torch, 6264 bytes, 3 tensors)

steps.0.weight f4 [64, 13]
-0.44986555 -0.2614325 -0.030226322 0.5381792 0.37950298 0.39031446 0.096800275 0.087287664
0.8369016 -0.015595429 0.33551285 0.21661375 0.33637282 -0.3578407 -0.577101 -0.538472
0.16706227 0.02299701 0.24877718 -0.02181106 -0.53683245 0.5182784 -0.004514428 -0.7012837
0.099053025 0.20106663 -0.05536939 0.2750467 -0.3968019 -0.5371025 0.13390397 -0.5428985
-0.38278577 -0.04137816 -0.32492524 -0.28548273 0.005335275 0.17046127 0.061445575 -0.29497617
-0.2515612 -0.7115325 0.9594043 0.036899194 0.2589246 -0.016942441 0.055975515 -0.08760357
-0.37889764 0.055229854 -0.31762478 0.09535257 -0.045291208 -0.11028995 0.55324215 0.20581445
0.010773247 -0.39365208 -0.07602036 -0.47935984 0.2416814 -0.3531703 -0.069710575 0.44259533
-0.07895156 -0.20273322 -0.0899716 -0.109910995 0.12656412 -0.24411193 -0.17439696 0.14070424
0.28876048 0.09312189 0.011741224 -0.12144873 -0.0091760615 -0.02991005 -0.12630215 0.32321903
-0.03591929 -0.19945075 0.26404226 -0.14629002 0.06767076 -0.1695291 -0.15055092 -0.18039393
-0.25098085 0.45260343 0.012224765 0.0072198426 0.123932056 0.29667777 -0.9700849 -0.32084796
0.07222545 -0.32301736 -0.0664301 0.15568349 0.27811337 0.08569499 0.26333135 -0.63245845
0.20150334 0.058184143 -0.22544551 0.29081246 0.112606324 -0.19878681 0.05809177 -0.22632736
0.043142032 -0.032110427 -0.03143603 0.095734045 -0.038824663 -0.18184152 0.13715515 0.27080664
0.0773011 -0.061433308 -0.34418538 0.26049018 0.44633988 -0.33971903 -0.19036905 -0.0654074
0.55040157 -0.15519217 -0.76504534 -0.33297694 -0.13479577 -0.3448696 -0.21923955 -0.30780792
-0.38622606 -0.24103706 -0.10390932 -0.4943189 -0.18061125 0.13641877 0.10107855 -0.2513689
-0.15716416 -0.0030168588 1.0742126 -0.1019797 0.65728915 -0.048355848 -0.0069532115 -0.031050347
0.01625722 -0.41120225 -0.5178304 0.20577793 -0.1800018 -0.3127394 -0.37838387 -0.35944346
-0.98012054 -0.7070019 0.28135142 -0.01607925 -0.21192306 -0.13631877 0.37301376 -0.04412038
0.043039862 -0.18906686 0.20987122 -0.14112201 -0.51931274 -0.4513056 -0.49983305 0.31889498
-0.047889255 -0.09878291 -0.5031592 0.20632298 0.20609744 -0.28711736 0.086458914 -0.30533957
0.065812476 0.00462375 0.12979838 -0.045436904 -0.50270426 0.30942693 -0.17700115 -0.10525819
0.61360717 0.08385962 -0.019992221 0.4509419 0.13829897 0.17030302 0.032274134 -0.23482263
-0.033177473 0.040733878 -0.11900276 -0.057272162 0.23551536 0.10248994 -0.52669966 0.5671771
0.11878942 -0.38031182 -0.36361828 0.32474443 0.593449 0.5093848 0.44486037 0.42698303
0.25080016 -0.17799413 -0.6122025 -0.3524528 -0.16828033 0.105202675 -0.44487533 -0.5873702
0.3663549 -0.20201978 -0.06579293 0.38078037 -0.27745095 -0.20945792 -0.24924362 -0.49968705
-0.5999898 -0.33081827 -0.009347829 -0.346584 -0.20742898 -0.26747182 -0.29709706 -0.9695389
-0.43035164 -0.23391297 -0.58464015 0.1764475 0.14483276 -0.14947097 0.11544766 -0.15999447
0.3262426 0.20920105 -0.7137908 -0.4333681 -0.752924 0.23495625 -0.12778097 -0.2887277
00000000: c754 e6be 7bda 85be 319d f7bc 1dc6 093f
00000010: 374e c23e 4cd7 c73e 393f c63d e0c3 b23d
00000020: 2f3f 563f f883 7fbc 57c8 ab3e ffcf 5d3e
00000030: 0f39 ac3e e536 b7be e4bc 13bf 4dd9 09bf
00000040: 5f12 2b3e 3a64 bc3c 72bf 7e3e 1cad b2bc
00000050: da6d 09bf e5ad 043f c4ed 93bb 5487 33bf
00000060: 50dc ca3d 69e4 4d3e 03cb 62bd ecd2 8c3e
00000070: 9e29 cbbe 8d7f 09bf 1f1e 093e 65fb 0abf
00000080: 7ffc c3be 257c 29bd 9a5c a6be cb2a 92be
00000090: 88d3 ae3b 668d 2e3e 5bae 7b3d 1e07 97be
000000a0: a1cc 80be fe26 36bf 859b 753f 9c23 173d
000000b0: c491 843e e0ca 8abc 9546 653d 8069 b3bd
000000c0: dffe c1be b338 623d b79f a2be 3548 c33d
000000d0: 4683 39bd b3df e1bd 47a1 0d3f 06c1 523e
000000e0: 4682 303c c48c c9be 90b0 9bbd a76e f5be
000000f0: 547b 773e bdd2 b4be 6bc4 8ebd db9b e23e
00000100: 5bb1 a1bd 4c99 4fbe 0843 b8bd 0419 e1bd
00000110: 069a 013e 7af8 79be 1e95 32be c614 103e
00000120: 6ad8 933e b1b6 be3d 435e 403c 1dba f8bd
00000130: 3157 16bc ec05 f5bc 5a55 01be f77c a53e
00000140: 1b20 13bd d13c 4cbe 8c30 873e 0dcd 15be
00000150: f896 8a3d 0999 2dbe 052a 1abe 30b9 38be
00000160: 9080 80be a3bb e73e 614a 483c 6e94 ec3b
00000170: 17d0 fd3d 26e6 973e 7c57 78bf 2f46 a4be
00000180: f0ea 933d 8862 a5be 810c 88bd 7e6b 1f3e
00000190: e064 8e3e db80 af3d 5ed3 863e cce8 21bf
000001a0: e456 4e3e 7f52 6e3d 30db 66be 5fe5 943e
000001b0: 259e e63d c58e 4bbe a3f1 6d3d 5cc2 67be
000001c0: b3b5 303d 3986 03bd 11c3 00bd 3610 c43d
000001d0: 9c06 1fbd aa34 3abe 6672 0c3e 2ba7 8a3e
000001e0: 0a50 9e3d 7ea1 7bbd 1139 b0be f85e 853e
000001f0: a986 e43e a7ef adbe 1bf0 42be 51f4 85bd
00000200: 1ee7 0c3f b2ea 1ebe 03da 43bf f47b aabe
00000210: e707 0abe c092 b0be 5580 60be 0099 9dbe
00000220: 6cbf c5be 6bd2 76be 69ce d4bd 5e17 fdbe
00000230: 28f2 38be 5db1 0b3e 4502 cf3d 6db3 80be
00000240: a4ef 20be 7eb6 45bb cc7f 893f bcda d0bd
00000250: 1a44 283f c810 46bd c4d7 e3bb 4c5d febc
00000260: dd2d 853c 1a89 d2be 8890 04bf 73b7 523e
00000270: 6452 38be 611f a0be 88bb c1be f908 b8be
00000280: 2ee9 7abf 14fe 34bf 4b0d 903e a2b8 83bc
00000290: 5c02 59be 2697 0bbe a9fb be3e 92b7 34bd
000002a0: 914a 303d be9a 41be 7be8 563e 4a82 10be
000002b0: aef1 04bf 8711 e7be 1eea ffbe 3446 a33e
000002c0: 8627 44bd b24e cabd 0bcf 00bf 5546 533e
000002d0: 350b 533e 0c01 93be 5f11 b13d 7855 9cbe
000002e0: b1c8 863d d482 973b dee9 043e 0c1c 3abd
000002f0: 3ab1 00bf 356d 9e3e ca3f 35be 9b91 d7bd
00000300: 5c15 1d3f 98be ab3d bac6 a3bc dbe1 e63e
00000310: 3f9e 0d3e ea63 2e3e e231 043d 5875 70be
00000320: 1ae5 07bd 91d8 263d b8b7 f3bd 3796 6abd
00000330: f02a 713e 3fe6 d13d cad5 06bf 8532 113f
00000340: de47 f33d 3bb8 c2be 2d2c babe e744 a63e
00000350: 46ec 173f 0b67 023f bdc4 e33e 859d da3e
00000360: e168 803e 1844 36be 4eb9 1cbf b274 b4be
00000370: ae51 2cbe 8074 d73d b3c6 e3be e55d 16bf
00000380: df92 bb3e 46de 4ebe 72be 86bd a5f5 c23e
00000390: 0d0e 8ebe 237c 56be b839 7fbe fbd6 ffbe
000003a0: ee98 19bf 0361 a9be a327 19bc 7573 b1be
000003b0: 4368 54be 11f2 88be 1b1d 98be b433 78bf
000003c0: 0d57 dcbe e286 6fbe faaa 15bf a7ae 343e
000003d0: 0a4f 143e eb0e 19be d36f ec3d 97d5 23be
000003e0: 4509 a73e cd38 563e feba 36bf 6ce2 ddbe
000003f0: a1bf 40bf 5f98 703e 04d9 02be 1ed4 93be

steps.0.bias f4 [64]
-0.6766254 0.23741789 -0.2638014 0.34609434 0.020620022 -0.2296792 -0.14021304 0.4404582
-0.56797016 -0.35485837 0.22801536 -0.5459369 0.05928485 0.28438732 -0.026588578 0.016943572
0.0437591 -0.13839543 0.015813023 0.44903556 -0.47635955 -0.57173336 -0.14449957 -0.12287911
-0.022745004 0.03148936 -0.24786359 -0.33688778 -0.2531839 0.08880019 -0.37766764 -0.20644447
-0.13275261 -0.2025724 0.08329645 0.08589419 0.36457998 -0.33987007 -0.15224549 0.19483507
0.14944886 -0.07069028 0.623989 0.145562 -0.038370688 0.269636 0.12803015 0.35336423
-0.3621315 -0.3304372 -0.79593503 0.06609571 -0.14147869 0.00966216 -0.062031478 -0.49904466
0.015310543 -0.4748506 -0.025039816 0.49280968 0.06988581 -0.1184389 0.027365606 0.12449059
00000000: 5237 2dbf ad1d 733e fa10 87be 4733 b13e
00000010: 52eb a83c 0631 6bbe 0294 0fbe bd83 e13e
00000020: 7e66 11bf ffaf b5be dc7c 693e 85c2 0bbf
00000030: acd4 723d 379b 913e 4ad0 d9bc 3fcd 8a3c
00000040: be3c 333d 88b7 0dbe 508a 813c fde7 e53e
00000050: 66e5 f3be 1e5d 12bf b2f7 13be 0ba8 fbbd
00000060: bb53 babc fdfa 003d f4cf 7dbe 8e7c acbe
00000070: 52a1 81be e0dc b53d a75d c1be 2e66 53be
00000080: 4df0 07be 246f 4fbe 5497 aa3d 4be9 af3d
00000090: 3aaa ba3e 7303 aebe 3ee6 1bbe d882 473e
000000a0: 1f09 193e 11c6 90bd bebd 1f3f 340e 153e
000000b0: 952a 1dbd bb0d 8a3e 561a 033e 28ec b43e
000000c0: 4d69 b9be 112f a9be 66c2 4bbf 305d 873d
000000d0: cadf 10be 094e 1e3c b814 7ebd c882 ffbe
000000e0: 12d9 7a3c 9e1f f3be 4d20 cdbc 8d51 fc3e
000000f0: 4b20 8f3d 1890 f2bd d62d e03c ecf4 fe3d

steps.2.weight f4 [1, 64]
-0.3324045 -0.1827771 0.0041075875 -0.4698816 0.57885903 0.30930975 -0.07622385 -0.34870237
0.10680436 0.009117968 -0.43562138 -0.78126097 -0.05315477 -0.08234664 0.048350535 0.31861717
-0.14275546 -0.29561383 -0.008622571 -0.22780225 0.08040862 -0.30177256 0.3316397 -0.004028082
0.009892128 0.06528436 0.16610631 0.26010585 -0.15446849 0.4851751 0.29350588 0.147283
-0.011788584 -0.5680917 0.21369605 0.012803416 -0.5807566 -0.52827543 -0.007840809 -0.5568984
0.31278512 0.29340342 -0.8482175 0.13405824 0.35532355 -0.8047105 -0.17731333 -0.44165468
-0.24193315 -0.026157528 -0.93370765 -0.09599595 -0.03651002 -0.27937368 0.008187323 0.0054802154
0.026511777 -0.14192644 0.26515105 -0.95162344 0.3064715 -0.015347065 -0.3831592 -0.05534625
00000000: ec30 aabe ec29 3bbe f198 863b 5294 f0be
00000010: 1b30 143f d95d 9e3e 401b 9cbd 1e89 b2be
00000020: 3fbc da3d 8863 153c c409 dfbe b800 48bf
00000030: d1b8 59bd 5ba5 a8bd 360b 463d ca21 a33e
00000040: 7d2e 12be b25a 97be af45 0dbc fe44 69be
00000050: 46ad a43d ef81 9abe aecc a93e 00fe 83bb
00000060: 9812 223c ceb3 853d c617 2a3e 982c 853e
00000070: fd2c 1ebe df68 f83e 6746 963e 5bd1 163e
00000080: e824 41bc 756e 11bf 23d3 5a3e 6bc5 513c
00000090: 77ac 14bf 0f3d 07bf bd76 00bc e590 0ebf
000000a0: 5f25 a03e f938 963e c824 59bf 9046 093e
000000b0: f8ec b53e 8201 4ebf a091 35be 9020 e2be
000000c0: 53bd 77be 5048 d6bc 7707 6fbf 8699 c4bd
000000d0: 888b 15bd 110a 8fbe 1f24 063c 6193 b33b
000000e0: 3a2f d93c 2a55 11be e1c1 873e 989d 73bf
000000f0: d5e9 9c3e 4272 7bbc 712d c4be c0b2 62bd
